…
c:\Users\laras\miniconda3\envs\metodos\lib\site-packages\torch\utils\data\dataloader.py:665: UserWarning: 'pin_memory' argument is set as true but no accelerator is found, then device pinned memory won't be used.
  warnings.warn(warn_msg)

Forma de los datos: torch.Size([128, 1, 110250])
Etiquetas: tensor([4, 7, 0, 9, 8, 4, 9, 7, 3, 3, 8, 3, 5, 9, 9, 0, 5, 8, 8, 4, 1, 5, 0, 5,
        9, 8, 3, 4, 7, 5, 3, 5, 8, 2, 2, 2, 0, 7, 3, 0, 2, 8, 3, 5, 6, 2, 1, 8,
        7, 5, 4, 6, 0, 0, 5, 4, 9, 0, 3, 2, 7, 6, 9, 5, 7, 8, 8, 6, 4, 3, 2, 4,
        8, 7, 4, 2, 4, 7, 8, 2, 6, 6, 3, 5, 3, 5, 2, 6, 1, 8, 5, 1, 4, 6, 3, 4,
        8, 6, 5, 5, 9, 2, 4, 7, 7, 7, 4, 6, 2, 8, 7, 5, 7, 4, 1, 0, 4, 4, 0, 2,
        2, 3, 0, 6, 6, 6, 5, 3])
MLP(
  (fc1): Linear(in_features=110250, out_features=60, bias=True)
  (fc2): Linear(in_features=60, out_features=55, bias=True)
  (fc3): Linear(in_features=55, out_features=50, bias=True)
  (fc4): Linear(in_features=50, out_features=45, bias=True)
  (fc5): Linear(in_features=45, out_features=40, bias=True)
  (fc6): Linear(in_features=40, out_features=35, bias=True)
  (fc7): Linear(in_features=35, out_features=30, bias=True)
  (fc8): Linear(in_features=30, out_features=25, bias=True)
  (fc9): Linear(in_features=25, out_features=20, bias=True)
  (fc10): Linear(in_features=20, out_features=15, bias=True)
  (fc11): Linear(in_features=15, out_features=12, bias=True)
  (fc12): Linear(in_features=12, out_features=10, bias=True)
)
Number of parameters: 6629797
Epoch: [1/50], Train loss: 2.3123
Epoch: [1/50], Valid loss: 2.3022, Valid accuracy: 0.0707
Epoch: [2/50], Train loss: 2.2726
Epoch: [2/50], Valid loss: 2.3010, Valid accuracy: 0.1212
Epoch: [3/50], Train loss: 2.1677
Epoch: [3/50], Valid loss: 2.3044, Valid accuracy: 0.1212
Epoch: [4/50], Train loss: 1.8628
Epoch: [4/50], Valid loss: 2.4484, Valid accuracy: 0.1111
…
