…
c:\Users\laras\miniconda3\envs\metodos\lib\site-packages\torch\utils\data\dataloader.py:665: UserWarning: 'pin_memory' argument is set as true but no accelerator is found, then device pinned memory won't be used.
  warnings.warn(warn_msg)

Forma de los datos: torch.Size([128, 1, 110250])
Etiquetas: tensor([7, 2, 1, 5, 4, 7, 5, 2, 8, 8, 4, 8, 9, 5, 5, 1, 9, 4, 4, 7, 6, 9, 1, 9,
        5, 4, 8, 7, 2, 9, 8, 9, 4, 3, 3, 3, 1, 2, 8, 1, 3, 4, 8, 9, 0, 3, 6, 4,
        2, 9, 7, 0, 1, 1, 9, 7, 5, 1, 8, 3, 2, 0, 5, 9, 2, 4, 4, 0, 7, 8, 3, 7,
        4, 2, 7, 3, 7, 2, 4, 3, 0, 0, 8, 9, 8, 9, 3, 0, 6, 4, 9, 6, 7, 0, 8, 7,
        4, 0, 9, 9, 5, 3, 7, 2, 2, 2, 7, 0, 3, 4, 2, 9, 2, 7, 6, 1, 7, 7, 1, 3,
        3, 8, 1, 0, 0, 0, 9, 8])
MLP(
  (fc1): Linear(in_features=110250, out_features=60, bias=True)
  (fc2): Linear(in_features=60, out_features=55, bias=True)
  (fc3): Linear(in_features=55, out_features=50, bias=True)
  (fc4): Linear(in_features=50, out_features=45, bias=True)
  (fc5): Linear(in_features=45, out_features=40, bias=True)
  (fc6): Linear(in_features=40, out_features=35, bias=True)
  (fc7): Linear(in_features=35, out_features=30, bias=True)
  (fc8): Linear(in_features=30, out_features=25, bias=True)
  (fc9): Linear(in_features=25, out_features=20, bias=True)
  (fc10): Linear(in_features=20, out_features=15, bias=True)
  (fc11): Linear(in_features=15, out_features=12, bias=True)
  (fc12): Linear(in_features=12, out_features=10, bias=True)
  (dropout): Dropout(p=0.4, inplace=False)
)
Number of parameters: 6629797
c:\Users\laras\miniconda3\envs\metodos\lib\site-packages\torch\utils\data\dataloader.py:665: UserWarning: 'pin_memory' argument is set as true but no accelerator is found, then device pinned memory won't be used.
  warnings.warn(warn_msg)
Epoch: [1/50], Train loss: 2.3139
Epoch: [1/50], Valid loss: 2.3197, Valid accuracy: 0.1212
…
